LDA/training_transformed_traces/transformed_traces_model=virtualization_detection.npy (npy, 115224 bytes, 1 tensors)

array f8 [14387, 1]
00000000: d0cd 3d74 60c8 28c0 5463 c9f9 21b6 2a40
00000010: b66e d07a 8bc6 2840 8e11 fcd1 bfcc 2ac0
00000020: aa4f b6c4 afa1 2a40 48b0 1cf5 1c26 28c0
00000030: ae33 4e47 c3ae 27c0 244e bdc8 e177 2a40
00000040: 97f1 a90e cd8a 2540 b15b f1fa a257 28c0
00000050: 0a2d 5f1b 35d5 2bc0 3aae b307 91e1 2cc0
00000060: c5e1 6fae 989e 29c0 5fcc 50eb 375d 2840
00000070: 8718 d20c 422e 2c40 fe99 16c8 2786 29c0
00000080: f02f 9af9 77a4 27c0 f43c 92bb 50fe 2740
00000090: a587 4acd 612c 2940 0c1d cfa8 17d1 26c0
000000a0: 0b28 5282 e4e0 28c0 ce21 c020 d26e 2cc0
000000b0: e311 51e3 2efd 2a40 26b6 3340 38e4 2a40
000000c0: da91 f639 e768 2840 919d 6639 2883 27c0
000000d0: e224 8428 1b2f 2a40 0541 a463 c012 2c40
000000e0: 3e27 a33a badb 2ac0 e209 f7dc 7cae 2a40
000000f0: f966 da6c d6d3 2840 12e3 f003 56e7 2a40
00000100: 4196 4427 ef25 2fc0 1215 bbbc cb73 2940
00000110: 5465 c745 0681 2840 481d 0e79 92ba 2840
00000120: 7b4d 78de ad69 2840 100a 47e1 82c0 24c0
00000130: 7f79 9895 0ec9 2a40 a88f 4f98 b789 2840
00000140: 7caa 0bc1 d624 2b40 5eae 0681 07be 2940
00000150: d362 f079 b7df 2940 b0d1 d098 de81 2640
00000160: 3f81 c14a c109 2740 053c 20fe 9dae 2840
00000170: 664a 6f10 6816 2cc0 fa4a 7642 a12a 28c0
00000180: 87e7 447d 9ae7 2b40 cbb1 c937 8850 2ac0
00000190: 7187 2b01 7d38 2b40 a06a 1199 1439 2cc0
000001a0: 6e7d 497d 2b75 27c0 74f4 855f 1ff3 2840
000001b0: b98e 2a1b 8f75 2840 cc10 36e3 45a7 2ac0
000001c0: bf78 c862 0c72 2940 74cc 3597 a7a7 2a40
000001d0: f040 2def 5001 26c0 a2b4 45d9 1703 2b40
000001e0: 3039 91b7 db5f 2840 4302 278b a16a 2bc0
000001f0: 90c1 9550 2411 2740 d603 5239 30ad 2a40
00000200: 1b24 efbf d499 28c0 4f30 684b 9c14 28c0
00000210: 0923 67c8 cded 2ac0 ea20 c0eb 3af0 2ac0
00000220: 9615 37d8 11d4 2740 70f1 7ad7 9d2b 2ec0
00000230: be99 0475 2562 2840 5eb2 cb86 3258 2b40
00000240: 4ae5 c13d 4e32 2cc0 6d7d 46d5 49ce 29c0
00000250: affa 6b81 f38f 2940 c344 5b07 ad07 2ac0
00000260: 130a 854d 3bf7 2ac0 a55e f582 4c99 2a40
00000270: 96ea 4fba c9a4 2a40 b6fd 3d47 95a2 29c0
00000280: 075a 6d65 c999 2a40 5dd1 38a4 0248 2840
00000290: a547 2953 4328 2a40 3156 6e3d a648 24c0
000002a0: 0638 ffd7 f7af 2ac0 d0ff b3c3 639f 28c0
000002b0: 0e12 af68 be42 2940 3a49 8908 7426 2c40
000002c0: fa37 1ecd 877b 2a40 c788 03ce dfa1 29c0
000002d0: 5eaa 269e 5f21 2a40 d390 6c9d ebd3 27c0
000002e0: 2cda 325b 1b3b 2740 42fd 3fb0 052a 27c0
000002f0: a23e b9f3 85db 2bc0 44af 9acb 17c2 2940
00000300: 0b17 63fa a116 2b40 b4df 1045 f9ce 2bc0
00000310: a71c 2bbd cd2d 2940 2227 1bc4 34a1 26c0
00000320: 214b dce2 0fcb 2540 f72f 7d30 b3d7 2640
00000330: a6dd fd9a cebe 2ac0 7100 df5d f1e6 2c40
00000340: 1d4c 70f1 a01d 2940 e386 a3ee 0fdc 2d40
00000350: 392a 5b4c a31c 2ac0 8793 9850 e2fb 2840
00000360: 206d 3637 e53e 2ac0 d73d a8e9 4c47 2ac0
00000370: 7417 ebd9 3895 2ac0 da95 ad81 3d21 28c0
00000380: ba7e d3df 93ff 25c0 89e2 cbdd 24df 2a40
00000390: 528e 2f6e 0e07 2bc0 7b3d 37e7 0676 2bc0
000003a0: 2d07 378f e3dc 2a40 e14c bd7d 0786 2c40
000003b0: 445d d830 b041 2d40 69e8 732b 23ce 2c40
000003c0: 97d7 c181 07bf 2a40 0e87 700f 5266 27c0
000003d0: 048e ecbf 6e3e 31c0 136a 24ce 84de 28c0
000003e0: eacb 6fa9 12bc 2cc0 a519 b8bc 11c6 28c0
000003f0: 807c 2c18 bcd6 2c40 c751 b409 5180 2840
00000400: e9fb ee03 7801 2dc0 95ef babf 5580 2a40
00000410: 01c4 1dfe 00b0 2740 6d46 8144 344f 27c0
00000420: 6418 e234 04b3 29c0 44ff e7ba a1b9 2940
00000430: 41f4 0034 8a49 2cc0 df80 a45d 2c7e 27c0
00000440: c7cb 4132 67ee 29c0 a85b f650 5785 28c0
00000450: 6891 e713 7da4 2cc0 93cd 09b9 a9c7 2bc0
00000460: 9ab3 519f cff6 2ac0 1a36 494a 4c45 2840
00000470: 7533 aa17 4158 28c0 a51c f4f1 cb87 2740
00000480: 87db db62 195c 2a40 e4c2 900c 658b 2bc0
00000490: 7098 1b66 94b8 2940 d49e 64af 5dfc 28c0
000004a0: b8ab c196 89da 2840 a9b8 83df d421 2bc0
000004b0: 8814 b63d 4a28 2b40 e196 d48a 17fc 27c0
000004c0: 5594 49f8 3771 2c40 0a7d 757b 8cea 2ac0
000004d0: d983 e2b4 e8a4 2a40 b98e e9b3 9704 28c0
000004e0: 519e aa2b c260 2940 9035 aa6a df00 2a40
000004f0: b45f 6d63 07ed 2ac0 fde3 0954 132c 2ac0
00000500: 3508 5a6e 27c2 2640 1771 6861 6cb6 2940
00000510: 4cc1 49b8 8769 2840 1a98 1d29 3fa2 2a40
00000520: 71ed 5f3e 4903 2ac0 5233 6f55 43a2 2940
00000530: 932a 864b c7f6 28c0 c304 eb88 864a 2ec0
00000540: 8175 a64b 3142 2bc0 45f8 572f 1d80 2740
00000550: f880 ea70 6c1e 2b40 0212 1429 57bd 2940
00000560: 4287 0c2b 48c9 26c0 dc4e 68eb ea3e 2ac0
00000570: 14ca 5385 880d 28c0 6555 6ad4 1295 27c0
00000580: 756f 764e a496 28c0 4b16 4b8e cde5 2bc0
00000590: 07c4 9524 c7ad 2940 967e c4a7 b90c 27c0
000005a0: ad6f 3c55 b891 28c0 094c cf20 16df 28c0
000005b0: eff4 dcbb ea48 2bc0 a21f 2d29 bf6c 2a40
000005c0: aa8b b57a cb49 2940 7c07 c8aa 88b0 2cc0
000005d0: 1ba1 b793 045b 2a40 ef5e f944 48a1 2840
000005e0: e574 e0ea 5118 2bc0 6492 dfb5 afaa 2b40
000005f0: 85c3 87f3 68b9 2840 f2e6 b4d1 5940 29c0
00000600: c231 f9c3 ee14 2bc0 08ba 6594 ed8c 28c0
00000610: bb3e a2c2 3896 2ac0 fa57 df7b 36e1 2c40
00000620: 117d 26b0 30ab 29c0 c363 aafe 9cdd 2bc0
00000630: 9f74 5a29 8a6b 2b40 b44d 3d72 ccdf 2640
00000640: 9e26 0f61 e404 2a40 b195 4cf7 2b6a 27c0
00000650: 2f71 eb27 d319 2cc0 feb8 8a00 f1b8 29c0
00000660: 0f56 7664 95f6 2b40 5bc8 41b6 be86 2a40
00000670: a803 f7c0 2a5f 2a40 92f1 e0ee 1b21 2840
00000680: 4d12 c530 1865 2b40 2eb2 797a d76c 2940
00000690: 7aa7 fffe f1f4 2940 a300 aaeb bfeb 2bc0
000006a0: bf4c 50f0 73be 25c0 2c35 c6ab 3636 2b40
000006b0: 4815 8dac 5c66 2b40 8bd9 5180 358b 2ac0
000006c0: 69c4 307b 45e6 2bc0 e89b 7a1b 9966 28c0
000006d0: b9dd cc39 143d 2840 a3f3 9e83 0508 2ac0
000006e0: c288 b4d9 ff2b 29c0 3f9d 6ff2 5e8b 2940
000006f0: 3857 4b33 53c8 2840 2242 77cc f072 2ac0
00000700: 68d5 3399 634c 2cc0 68b9 b1ab 0683 2640
00000710: 8f9a 46f9 1709 2ac0 1510 145f c996 2740
00000720: 8b2c b61f 94ad 2840 f21a 727b 4dea 2740
00000730: 78e6 0cbc 0499 2b40 bed6 a095 87ef 2840
00000740: dfe9 ef59 f1c4 2cc0 e9b4 ea51 05bc 2bc0
00000750: 0c69 1392 19e0 2ac0 d9f8 b4b9 e704 2740
00000760: 9088 247c f8f6 28c0 a185 15b6 f532 27c0
00000770: 6a4b 9157 6483 2940 954e da07 058b 29c0
00000780: 34c2 22a0 2264 2cc0 839d 5d69 2bb7 2ac0
00000790: 2f2c abef fb32 2cc0 f5b8 f4a4 a24f 2ac0
000007a0: 2b8d 3922 578d 2940 8870 697d e546 2940
000007b0: b425 67de 3a60 2c40 32e0 aba3 60f8 27c0
000007c0: 0f04 a544 43ea 2940 68ca fd23 303f 2ac0
000007d0: 9d12 7201 18fb 25c0 160b 8c14 51d1 2b40
000007e0: e695 f32d 71b7 28c0 6381 ce79 8417 2840
000007f0: a714 0e3b 329a 2940 d7ca 3353 c85c 2dc0
-12.391360886139324 13.355727964242455 12.387782895987907 -13.399900972385492 13.315794131521972 -12.074439677955652 -11.84133360700238 13.234144471272039
10.771095712895471 -12.171165315592448 -13.916420798652798 -14.44055961674086 -12.809758616597614 12.182067254651143 14.090347672125302 -12.762022259482361
-11.821227836677252 11.996709691621142 12.586683669422039 -11.40838363197556 -12.439243385819301 -14.216446898892993 13.494498351713395 13.445741659462396
12.20488911757359 -11.756166261459642 13.092004076128834 14.036624063301597 -13.429155189911054 13.340796380191879 12.413745309505872 13.451828120379592
-15.574090220568111 12.7261637667057 12.25200098094016 12.364398749325701 12.206404640374549 -10.375998535081663 13.392689394819852 12.26897884341436
13.571950943636004 12.871151001039092 12.936946688264845 11.253651404848682 11.51905282604332 12.341049138483877 -14.043762696824341 -12.083261563243912
13.95235053506964 -13.157289260264312 13.610328709186179 -14.111485274673498 -11.7288474228105 12.474848733045498 12.22960743803502 -13.326705074643904
12.722750746699942 13.327450490300386 -11.00257060458577 13.506041326292976 12.187223183133568 -13.70826372958357 11.533480184822821 13.338258544217677
-12.300451276723882 -12.040254932850216 -13.464460623350094 -13.469199530795283 11.914198643421326 -15.085188611753182 12.19169202500495 13.672260486951185
-14.098253183287529 -12.90290705190156 12.781154674941119 -13.014991979495226 -13.482874319543987 13.299411861851079 13.321851560836233 -12.817545152966755
13.300364656065552 12.1406451529844 13.07863864783196 -10.141893310278734 -13.343687772659916 -12.311308017466132 12.630358954783357 14.075104014166403
13.241270456255723 -12.816160619670326 13.065182630748662 -11.913906974318172 11.61544308658366 -11.58207464963073 -13.928756348002313 12.879087793953325
13.544204544635724 -13.9042455275629 12.589460288536726 -11.314855697931822 10.896605576888364 11.421288981706295 -13.372670024384956 14.45106023165883
12.557868523557824 14.929809052907734 -13.05593336689809 12.49196102011207 -13.12284252681144 -13.139258672511387 -13.291449365565974 -12.06492238277399
-10.999175066535248 13.4358281432517 -13.51378197031514 -13.73052141713446 13.431423640696801 14.261775903089474 14.628297354137096 14.402612073801906
13.373104147827503 -11.69984482048633 -17.24387740636122 -12.434606973595725 -14.367329878708876 -12.386854073975721 14.419403796606503 12.250618270169879
-14.50286876957212 13.250654212540931 11.843757573255063 -11.65469564512315 -12.849641468619843 12.862562027759516 -14.14363253127715 -11.746432234126074
-12.965631075412501 -12.26043179518986 -14.321266767518594 -13.889966757246645 -13.482052782748543 12.135347672879153 -12.17237161591195 11.765227852867904
13.17988118108566 -13.772255318327957 12.860507193440043 -12.492902260811583 12.426830969945385 -13.566077217892898 13.578691414333903 -11.992367113543368
14.221130141240943 -13.458103044597483 13.3220879103191 -12.008969900379599 12.688981403901524 13.001704533841604 -13.462946993924426 -13.08608496304259
11.379207085123292 12.856295627593267 12.206113585475258 13.316888127195899 -13.0064181797122 12.816919965576435 -12.481989250304911 -15.145557669342798
-13.629282344884588 11.750222663391591 13.559421089769316 12.869805606555932 -11.393128724364605 -13.122886044009128 -12.026432196119494 -11.791159284572766
-12.294222309071964 -13.948833891549972 12.83940996483035 -11.524853937851088 -12.284609473826857 -12.435715699486552 -13.642415877077353 13.212395941503761
12.64413054910786 -14.344792687337524 13.177769294896782 12.315004496994758 -13.54749998083066 13.833371814290508 12.36212883980057 -12.62568526585844
-13.540884136361345 -12.275250089090164 -13.293401796632102 14.439868803990965 -12.834355835626896 -13.932838400172733 13.710038463870942 11.437106676085797
13.009554894542187 -11.70736668405411 -14.050439116945737 -12.86121370023147 13.981608523793538 13.263173766641719 13.185873060372458 12.064666237791958
13.697450183922365 12.71258146987483 12.978408783633984 -13.960448612692124 -10.871978292276593 13.60588585657623 13.699925796720564 -13.27189255713599
-13.949748849585562 -12.200386866299553 12.119294935472555 -13.015667069581303 -12.585936358726375 12.772208763241563 12.391259768435347 -13.224493398244764
-14.149197375848146 11.25591026825414 -13.017761030071851 11.794505091857028 12.339020720470463 11.95762239234816 13.798864246916523 12.46783130253186
-14.384653864418338 -13.867228088284223 -13.43769508826201 11.509580424634281 -12.482364539584779 -11.59953087818832 12.756624924169689 -12.771522756003188
-14.195576671832079 -13.357753079106947 -14.099578370709507 -13.155537752984381 12.776055402303049 12.638469618912737 14.187949133006306 -11.985112299662521
12.95754446520189 -13.123414158563904 -10.990417523550883 13.908821718306665 -12.358285366043628 12.045932585199528 12.80116447970279 -14.68121585852843
