LDA/training_transformed_traces/transformed_traces_model=packer_detection.npy (npy, 192256 bytes, 1 tensors)

array f8 [24016, 1]
000000 b2 1c c0 96 ec ef 04 c0 f7 b9 1d 9c 17 e8 ea bf
       -2.617150476205631 -0.8408315705435702
000010 9f 86 ec 88 a3 9a 00 c0 45 39 91 18 47 7b 05 40
       -2.0755072304899183 2.68519419854343
000020 6b ce 3a b6 4a 19 0b c0 42 6d 92 2f c1 b7 05 c0
       -3.387349532765986 -2.7147239414750013
000030 f7 07 38 d9 48 92 03 40 25 82 ab 04 8c 10 02 40
       2.446428010008272 2.258079563602467
000040 e8 89 fd ee da 2a 03 40 4d b4 31 ea 44 38 f5 bf
       2.3959253951190824 -1.3262375972947382
000050 04 ab 6f 5f b4 a6 f1 bf fa 9f 78 3f a3 81 01 c0
       -1.1031993606545152 -2.188299651974373
000060 5c f3 96 4c bc f9 b2 bf ed b6 3c 3b dd 75 13 40
       -0.07412316198219798 4.865101743298266
000070 7d 61 4c 55 7d 61 03 40 0b 0b b0 21 27 74 04 40
       2.4226023353514266 2.556715262589369
000080 f9 02 11 b0 41 47 04 c0 65 9c 78 77 82 ae d8 bf
       -2.534793258208421 -0.38565122286894954
000090 05 99 4a 93 38 9f f2 3f de 90 9b e4 35 a6 01 40
       1.1638723138399325 2.2061574802374784
0000a0 67 b0 32 2a 8d d3 08 40 3a 01 15 cc 12 8b 04 40
       3.103296594306858 2.5679069465551523
0000b0 09 2e 8b a3 d8 ce 05 40 cd a7 75 0d 5d dd f3 3f
       2.725999143299991 1.2415438199773121
0000c0 71 bf 5c a2 68 f3 00 40 a4 68 05 9e fe 46 f4 3f
       2.118851917701186 1.267332665700942
0000d0 32 7b 6e 8a 37 5e 0d 40 4a af e5 2e 70 38 f5 bf
       3.671004373070354 -1.3262788612291438
0000e0 fd 20 aa d2 42 63 02 c0 71 64 b6 30 db 5a 0a c0
       -2.2984672983330925 -3.2943633847867706
0000f0 0d 4c 77 36 f4 75 12 40 d6 a8 5d 70 42 29 01 40
       4.615189410239521 2.145146253450643
000100 e3 c8 0d ee c8 bc 0f 40 54 27 2f 53 17 bd 03 40
       3.9671801183659325 2.4673296450390954
000110 12 3a 05 00 c1 0b 00 c0 d6 87 b8 5b d9 8f d6 3f
       -2.005739212188254 0.3525298495970878
000120 4e a3 f9 a8 ab ee 0b c0 8e ac dc 35 3e e4 0a c0
       -3.4915383530791706 -3.361446781918466
000130 6e a6 45 f0 1f 61 fc 3f c8 68 21 e9 d7 77 d7 bf
       1.7737120996120228 -0.36668966070795905
000140 08 c2 53 d7 36 23 10 c0 7a 60 bb d3 e6 82 09 40
       -4.034388889777354 3.1889168302114372
000150 a8 51 07 ad 39 1a f8 3f d5 87 8b 36 59 48 01 c0
       1.5064026602677618 -2.1603264104205473
000160 35 d8 35 3e 04 bb 0a 40 cd 4d 6a b4 b0 f8 fb 3f
       3.341316686647611 1.7482153937788667
000170 f5 05 d6 26 22 91 01 40 00 9e eb 08 40 02 07 c0
       2.1958659204544753 -2.8760986992745075
000180 a5 c7 79 82 58 d9 e0 3f db 19 9e 4b 6d 0f 03 c0
       0.5265314625123564 -2.382532683145866
000190 7b 06 13 d2 63 90 00 c0 4a 3d e7 a0 44 02 f2 bf
       -2.0705028926902833 -1.1255537305149397
0001a0 25 e4 70 f5 a1 9f 04 40 6d 49 a1 a5 b6 99 0c c0
       2.577945630557695 -3.5750554027410346
0001b0 4e 4f 43 cf 80 fe 06 40 65 2c fd 14 84 7a 02 c0
       2.874269122354156 -2.3098222388994594
0001c0 3a 8c c6 21 6f 4c 0a c0 a5 a5 9c 67 1e 9d a1 bf
       -3.2873213423459022 -0.03440184607309086
0001d0 0f 36 7a 1d d3 b3 04 40 f0 25 d1 e9 46 3f 07 40
       2.587805013935174 2.9058969752265895
0001e0 16 5d 75 bc a1 c7 ff bf cd 48 19 65 50 70 07 c0
       -1.986238228002383 -2.9298408411351375
0001f0 7a 45 2b 7c a3 43 cb 3f 63 96 58 b1 20 0a 05 c0
       0.2130016666692816 -2.6299451689872497
000200 29 f7 cd 90 ec 5a ee 3f 80 cf dc 86 2a 28 f5 3f
       0.9485991314138335 1.3223061817234054
000210 fa 35 af cc 97 44 00 c0 02 3f 52 87 f9 73 01 40
       -2.033492659661303 2.181628281781628
000220 b2 8b a1 3a 93 87 fc bf 41 e1 cb 7c 85 b5 f1 bf
       -1.7830993929171481 -1.106816756711922
000230 90 0d 7f 1a 49 d1 10 c0 38 ce 4e 1e 6c 94 05 40
       -4.204380430226038 2.697471844463305
000240 25 c5 20 e4 bc 67 12 c0 b7 a0 24 e3 66 c3 fa 3f
       -4.60130649995816 1.6727055428291757
000250 9a 73 f6 6d 11 a7 06 c0 f3 6f 39 11 df b2 07 40
       -2.8315762129627275 2.962339529576633
000260 76 3d 2d 31 15 22 ff bf cc fe 4b d5 b6 87 e5 3f
       -1.945820991608199 0.6728166738466483
000270 3e 9c 17 5d c8 6d ef 3f f7 29 5b 3d 55 a1 11 c0
       0.9821512048919272 -4.40755172604485
000280 d6 61 7e b3 c8 a7 04 40 57 ae 13 79 c6 34 f8 3f
       2.5819257758086946 1.512884591061171
000290 4d b0 88 ff 3e 19 fa bf 4e 56 00 80 e3 02 05 c0
       -1.6311635953707253 -2.6264104843237766
0002a0 fb 12 e4 53 07 35 ff 3f e2 09 8a 59 4e 6f fe bf
       1.9504464413632252 -1.9021743295312423
0002b0 d8 eb 2b c4 71 e4 ff bf 07 4f 3f 1e 6c b0 00 c0
       -1.993272558493791 -2.0861437190122873
0002c0 e9 f2 fc 08 96 f1 f8 3f c7 d8 ac db 74 47 d7 bf
       1.5589809752556738 -0.36373635723738257
0002d0 eb 41 b1 10 87 53 02 c0 83 a7 51 95 6b 2f e2 3f
       -2.2907849601835912 0.5682886043916685
0002e0 1e f7 06 e6 b5 df e6 bf ea 3a b6 24 8f bf f2 bf
       -0.7148084156721983 -1.1717673715644943
0002f0 20 85 04 a7 da fb 00 40 7c 92 c6 49 5b 1d 08 c0
       2.1229756401304627 -3.0143342746471813
000300 5f b8 71 94 e9 75 f2 bf a9 1d 6a 20 f7 65 f5 3f
       -1.1537872122385335 1.337393881434631
000310 a6 65 0e 5b 35 9d 06 40 da 6d bb 10 08 18 de bf
       2.826761924149383 -0.47021676668165713
000320 e2 6e 1f 7f c7 60 eb bf bb a5 51 87 45 32 f4 bf
       -0.8555638773791225 -1.2622733388801481
000330 ea d5 39 18 69 7d 07 40 85 e3 e2 f9 44 3f 0b 40
       2.936235608353617 3.4058932802549315
000340 e1 81 ae b1 87 d1 f5 3f 8a 95 94 4e 36 d5 06 c0
       1.3636547985735137 -2.854107488545826
000350 37 ba 1b 3f 46 82 ea bf 25 84 c7 0e 44 2d 05 40
       -0.828402636774462 2.647102466071845
000360 ff fa cf e9 7d 71 07 40 a2 61 cb 92 54 07 f8 bf
       2.9304159418674085 -1.5017896398695503
000370 50 6a 66 9a b0 29 fd 3f e6 70 ae 99 94 97 d5 3f
       1.822678187489732 0.33737673767042364
000380 32 ed b0 d8 62 d8 01 40 b0 6d 5e 20 b9 e3 fc 3f
       2.2306572846406647 1.8055964722069398
000390 b3 d6 68 bf c1 09 fd 3f 29 cd 0b c9 65 02 05 c0
       1.8148820378241168 -2.62617070262208
0003a0 3f c9 7e eb cf 59 06 c0 3c 03 be 97 80 86 e7 3f
       -2.793853606993394 0.7351687396731914
0003b0 1c ef 42 ac 2a 39 af bf e1 b9 1b 31 45 f1 05 40
       -0.060983022239694956 2.7428077541910487
0003c0 a9 14 35 ad 48 67 f1 3f 88 00 7e 31 4a c5 0a 40
       1.0877157941734288 3.3463329187944204
0003d0 aa fb c5 af d4 04 01 40 cf 5e c8 a5 66 7f 03 c0
       2.127358792523826 -2.43720750348789
0003e0 40 62 26 4d f8 6e 0a c0 6b 78 c0 d4 4b 6b f5 3f
       -3.3041845347727588 1.3386953650110864
0003f0 3d a7 47 3b 2a 14 03 c0 2d 1a e6 d2 38 13 06 40
       -2.384846175312218 2.7593857265922197
000400 57 b6 6b f7 3b 68 04 c0 cf 64 19 d8 22 c5 df 3f
       -2.550895626997583 0.4964072332709976
000410 ab e1 9d 44 0e 85 0d c0 3e 9f 9e 4b 4a 33 f9 3f
       -3.689968620365297 1.575022025479441
000420 70 55 13 98 b6 f3 02 c0 99 ab 57 a5 78 ac 0c c0
       -2.3690006142521085 -3.5842144887332776
000430 3e e7 fa 7e 1a f0 09 c0 9b 7b 44 98 e8 f9 09 c0
       -3.242238037139855 -3.247025670614176
000440 b0 02 f0 92 da 12 f8 bf 4a 55 c7 65 46 10 fe 3f
       -1.5046029796359726 1.8789733863571478
000450 61 27 39 fa eb da f6 3f 47 fe 22 aa d1 0b 06 c0
       1.4284477018686277 -2.7557709972313975
000460 5d 58 16 ec db 72 02 40 5b 52 d6 a4 1e d0 06 40
       2.306083530837937 2.8516209485917847
000470 aa 5c 24 9f 3e 35 eb 3f a3 0b 63 b0 01 ab fa 3f
       0.8502495868914555 1.66674965764171
000480 6d 98 74 92 72 cc 04 c0 15 91 92 a8 a1 73 e8 3f
       -2.599827903922281 0.7641151707107691
000490 fb e0 2e 74 36 42 fb 3f a8 5b 65 d5 a6 6e fd 3f
       1.7036652124789373 1.8395145736483105
0004a0 91 70 1e 3a bf e9 09 40 72 48 f2 89 4b 17 03 c0
       3.239134267858454 -2.3863745476783658
0004b0 7c d4 74 e8 ad 1f 0c c0 37 74 48 ec 08 78 d5 3f
       -3.515468421998376 0.3354513461543464
0004c0 c6 0a 26 8e fc 1a 04 40 29 b6 e1 8c 36 22 05 40
       2.513177023445084 2.6417056089765265
0004d0 0c b1 cf c9 fc 26 0b c0 b0 51 25 a2 7c 9d fc bf
       -3.3940368429667895 -1.788448937780327
0004e0 9c 46 70 5b 6d 8b 0f c0 8b a9 73 fb 08 75 fd bf
       -3.9430796760214673 -1.8410730192505038
0004f0 7f 03 cd 34 f7 b6 01 40 ab a0 55 c7 21 df 03 c0
       2.2143386960091784 -2.483951146412513
000500 42 ae 30 ec c3 78 f8 3f 1d 9f 58 d2 65 b0 03 40
       1.529483721368607 2.4611317094130656
000510 4f 3f 44 b3 10 be 02 40 30 06 87 0a 12 82 f2 3f
       2.3428052907183097 1.1567554866054586
000520 1c 09 e6 47 79 0a f2 bf b1 0a 3c 8f ed bf 06 40
       -1.1275570686853547 2.8437148275564472
000530 8c 24 be 5d 70 05 03 c0 9a 92 07 b9 fa 8d 04 40
       -2.377655727734753 2.569325871986007
000540 73 97 6e 8f 87 84 00 40 bd 72 09 fc ee bf 00 40
       2.064711685717094 2.0937175455458985
000550 0b ef 90 be 3e 20 00 c0 41 1f 04 7f 38 80 03 c0
       -2.0157446754436754 -2.437607757867142
000560 e5 3d b9 47 06 ef f7 bf bd 2e 5c eb 9f 12 03 c0
       -1.4958555986121322 -2.3840940845019234
000570 b2 d4 7d 41 75 57 ca bf 86 fa bf 13 c2 67 05 40
       -0.20579400728062108 2.67566314153311
000580 f4 3a 59 11 0c c2 f8 3f b9 bd 0c 44 d0 18 ff bf
       1.5473747899702035 -1.9435579927629603
000590 12 68 5b ae f5 97 fc 3f 69 00 a3 2b 22 dc ff 3f
       1.7870995341131715 1.9912435249862261
0005a0 66 ec 08 c2 f7 a0 f1 3f 0f 57 fa 31 25 5d 06 40
       1.1017987803923233 2.7954811005137183
0005b0 5e 36 d3 75 b9 bb ba bf 4e 53 05 c2 2d 38 f9 bf
       -0.10442694784725279 -1.576215513128051
0005c0 6b b5 bf 84 40 76 0b c0 9c 5c c4 64 99 76 07 40
       -3.4327402468685952 2.9329097626137592
0005d0 75 bf a1 2c e2 46 0a c0 71 8e 9a 8d 17 b6 01 c0
       -3.2846110808240447 -2.2139121115486025
0005e0 a5 d1 f8 f2 cb cf 01 c0 cb f3 a0 e1 63 09 ff 3f
       -2.226463220804549 1.9397925199148058
0005f0 85 57 72 b3 db e1 06 c0 da 62 9b bc 1e 8b 08 40
       -2.8602823275822993 3.0679297194404684
000600 7b e8 e2 00 7b 69 d3 3f b0 8c 46 dd fc 98 f1 3f
       0.30331301771696645 1.0998505252435216
000610 8c 11 1f 22 47 2c f8 bf 48 6c a3 74 50 b1 02 40
       -1.5108100254884418 2.3365792381642088
000620 1c b4 f3 18 e2 10 05 40 17 aa 18 17 c2 f3 ea bf
       2.633243746697657 -0.8422556353664871
000630 e1 55 8e e9 3b 54 05 40 0f 68 9a b3 b0 68 fb 3f
       2.6661298986971222 1.713059140753561
000640 68 45 3b 82 7f ad fb bf 11 13 8e e1 4a 24 03 40
       -1.7298579299134307 2.392720949314374
000650 6c 2d 62 b7 e4 a9 ee bf ff b0 3a a9 35 64 e7 3f
       -0.9582389432629674 0.7309826188334511
000660 72 2d e4 11 7e 50 f2 3f 24 28 5b b6 53 14 0a c0
       1.1446514796142222 -3.259925293595204
000670 8a 61 12 b4 fd 9a ef 3f 75 8c da 9f 32 09 f8 bf
       0.9876698033358917 -1.5022455448422793
000680 db 13 71 7c af 4b 00 40 3f 68 39 6f e5 55 fc 3f
       2.0369558069237264 1.770970758886065
000690 66 c3 8f 2e f9 e0 07 40 c9 2f c6 87 b3 78 04 40
       2.9848502767203398 2.558936177001645
0006a0 9c 25 74 a3 25 64 03 c0 0c 81 52 c9 80 66 fc 3f
       -2.4238999147243714 1.7750251640464425
0006b0 8c bc 3d ac 77 f2 01 40 e2 a9 54 db 3e 99 0b c0
       2.2433923202839363 -3.4498269210064203
0006c0 7f a1 7d 92 5b 36 fa bf 23 60 f7 06 8d 9f 0a c0
       -1.638270923833346 -3.3279057068102857
0006d0 b6 50 49 28 1c a9 06 40 4d ec 13 d8 ba 9e f3 3f
       2.832573237168698 1.2262524071254746
0006e0 bf a2 38 4a d8 ee 07 40 fb af 44 4c 6c 60 04 c0
       2.9916234777959683 -2.5470815618955363
0006f0 8f 7e 0e 3f 55 55 07 40 2f 4e 1a 2c 2b 7b f6 3f
       2.9166665006922083 1.4050704691661726
000700 d0 2b 50 e5 c4 a7 e3 bf cf 4a 44 f6 47 af ee bf
       -0.6142296293995688 -0.9588966188333304
000710 fb 8d 11 dc 65 d6 09 40 61 ea 41 25 61 33 e9 3f
       3.229686469350552 0.7875219085393149
000720 1c bd cb 9f d2 28 ff 3f 1b d2 85 5c 50 04 ec 3f
       1.9474664918923912 0.8755266005596839
000730 e6 16 e8 05 88 bf fd 3f b7 4c 57 3a f1 0f f6 3f
       1.8592605810858287 1.3788921622224686
000740 cc ec 20 93 e9 48 0b c0 e4 95 27 e8 6f 52 09 c0
       -3.4106017584250363 -3.1652525078850307
000750 3a ce ea e1 4a 91 02 c0 32 3f eb 74 54 93 f7 3f
       -2.320943608263204 1.473469216074545
000760 8d 0f 70 fe 03 ab fa 3f d5 a0 24 10 f7 e9 02 40
       1.6667518557523835 2.3642407666376166
000770 3b 4b 6f 13 20 d1 00 40 6b 7c 18 e1 04 6c 00 40
       2.1021119612063592 2.052743681487802
000780 9a c1 66 24 95 26 02 c0 f1 38 bf ef 71 ff e7 bf
       -2.268839153657791 -0.7499322588498939
000790 43 dd 3b a5 9a 48 0f 40 a3 97 34 62 16 3c ff bf
       3.910451212777532 -1.9521697841787293
0007a0 69 cc 2a 5e 4a b8 07 c0 fb 04 38 ef 79 8a f4 bf
       -2.964985595399004 -1.2838076920018568
0007b0 c2 97 54 a1 7d 3e dd bf d3 19 68 7b 9a 41 08 40
       -0.45693913226056904 3.032032932390601
0007c0 c5 bc 52 14 da be 07 40 56 9e f0 c9 c9 07 04 40
       2.9681893909215398 2.5038028503948153
0007d0 a2 36 e1 3b ae f3 fe 3f 44 d9 71 53 98 37 09 c0
       1.9344923342754687 -3.15214600745381
0007e0 9a 8f f7 8f 08 25 05 40 fb 90 16 05 84 20 fd bf
       2.6430827376770596 -1.8204384039646004
0007f0 be b3 9d aa 83 e1 09 40 8c ef 50 d3 30 57 02 40
       3.2351144151093356 2.2925735959124207
